…
","model.add(Dropout(.1))\n","model.add(Dense(2, activation='softmax'))\n","\n","# Compiling the model\n","model.compile(\n","    loss = 'categorical_crossentropy', \n","    optimizer='adam', \n","    metrics=['accuracy']\n",")\n","model.summary()"],"execution_count":null,"outputs":[{"output_type":"stream","name":"stdout","text":["Model: \"sequential_1\"\n","_________________________________________________________________\n"," Layer (type)                Output Shape              Param #   \n","=================================================================\n"," dense_2 (Dense)             (None, 128)               896       \n","                                                                 \n"," dropout (Dropout)           (None, 128)               0         \n","                                                                 \n"," dense_3 (Dense)             (None, 64)                8256      \n","                                                                 \n"," dropout_1 (Dropout)         (None, 64)                0         \n","                                                                 \n"," dense_4 (Dense)             (None, 2)                 130       \n","                                                                 \n","=================================================================\n","Total params: 9,282\n","Trainable params: 9,282\n","Non-trainable params: 0\n","_________________________________________________________________\n"]}]},{"cell_type":"markdown","metadata":{"id":"RrUJrU002Jpv"},"source":["**Step 7:** Training the mo
…
]))\n","model.add(Dense(512, activation='relu'))\n","model.add(Dropout(0.2))\n","model.add(Dense(512, activation='relu'))\n","model.add(Dropout(0.2))\n","model.add(Dense(10, activation='softmax'))\n","\n","# summarize the model\n","model.summary()"],"execution_count":null,"outputs":[{"output_type":"stream","name":"stdout","text":["Model: \"sequential_3\"\n","_________________________________________________________________\n"," Layer (type)                Output Shape              Param #   \n","=================================================================\n"," flatten (Flatten)           (None, 784)               0         \n","                                                                 \n"," dense_7 (Dense)             (None, 512)               401920    \n","                                                                 \n"," dropout_3 (Dropout)         (None, 512)               0         \n","                                                                 \n"," dense_8 (Dense)             (None, 512)               262656    \n","                                                                 \n"," dropout_4 (Dropout)         (None, 512)               0         \n","                                                                 \n"," dense_9 (Dense)             (None, 10)                5130      \n","                                                                 \n","=================================================================\n","Total params: 669,706\n","Trainable params: 669,706\n","Non-trainable params: 0\n","_________________________________________________________________\n"]}]},{"cell_type":"markdown","metadata":{"id":"D7blY9XFq66W"},"source":["Compile the Model"]},{"c
…
'relu'))\n","model.add(MaxPooling2D(pool_size=2))\n","model.add(Dropout(0.3))\n","model.add(Flatten())\n","model.add(Dense(500, activation='relu'))\n","model.add(Dropout(0.4))\n","model.add(Dense(10, activation='softmax'))\n","\n","model.summary()"],"execution_count":null,"outputs":[{"output_type":"stream","name":"stdout","text":["Model: \"sequential_5\"\n","_________________________________________________________________\n"," Layer (type)                Output Shape              Param #   \n","=================================================================\n"," conv2d_1 (Conv2D)           (None, 32, 32, 16)        208       \n","                                                                 \n"," max_pooling2d (MaxPooling2D  (None, 16, 16, 16)       0         \n"," )                                                               \n","                                                                 \n"," conv2d_2 (Conv2D)           (None, 16, 16, 32)        2080      \n","                                                                 \n"," max_pooling2d_1 (MaxPooling  (None, 8, 8, 32)         0         \n"," 2D)                                                             \n","                                                                 \n"," conv2d_3 (Conv2D)           (None, 8, 8, 64)          8256      \n","                                                                 \n"," max_pooling2d_2 (MaxPooling  (None, 4, 4, 64)         0         \n"," 2D)                                                             \n","                                                                 \n"," dropout_5 (Dropout)         (None, 4, 4, 64)          0         \n","                                                                 \n"," flatten_1 (Flatten)         (None, 1024)              0         \n","                                                                 \n"," dense_10 (Dense)            (None, 500)               512500    \n","                                                                 \n"," dropout_6 (Dropout)         (None, 500)               0         \n","                                                                 \n"," dense_11 (Dense)            (None, 10)                5010      \n","                                                                 \n","=================================================================\n","Total params: 528,054\n","Trainable params: 528,054\n","Non-trainable params: 0\n","_________________________________________________________________\n"]}]},{"cell_type":"markdown","metadata":{"id":"qA8jGyN7LqRD"},"source":["6. Compiling the model"]
…
